…
track_running_stats = False
train_data_loader = dict(
    data_path='/home/yxy/datasets/AdverseNet/train',
    fix_sample=3000,
    num_workers=3,
    shuffle=True)
unique_label = [
    1,
    2,
    3,
    4,
]
val_data_loader = dict(
    batch_size=1,
    data_path='/home/yxy/datasets/AdverseNet/val',
    fix_sample=1000,
    num_workers=1,
    shuffle=False)
work_dir = '/home/yxy/work/stage1'

2024/04/10 20:42:30 - mmengine - INFO - Number of params: 8418543
2024/04/10 20:42:30 - mmengine - INFO - Model:
AdverseNet_Stage1(
  (lidar_tokenizer): CylinderEncoder_Seg(
    (point_mlp): Sequential(
      (0): BatchNorm1d(9, eps=1e-05, momentum=0.1, affine=True, track_running_stats=False)
      (1): Linear(in_features=9, out_features=64, bias=True)
      (2): BatchNorm1d(64, eps=1e-05, momentum=0.1, affine=True, track_running_stats=False)
      (3): ReLU()
      (4): Linear(in_features=64, out_features=128, bias=True)
      (5): BatchNorm1d(128, eps=1e-05, momentum=0.1, affine=True, track_running_stats=False)
      (6): ReLU()
      (7): Linear(in_features=128, out_features=256, bias=True)
      (8): BatchNorm1d(256, eps=1e-05, momentum=0.1, affine=True, track_running_stats=False)
      (9): ReLU()
      (10): Linear(in_features=256, out_features=256, bias=True)
    )
    (fea_compression): Sequential(
      (0): Linear(in_features=256, out_features=32, bias=True)
      (1): ReLU()
    )
    (pool_xy): SparseMaxPool3d(kernel_size=[1, 1, 2], stride=[1, 1, 2], padding=[0, 0, 0], dilation=[1, 1, 1], algo=ConvAlgo.MaskImplicitGemm)
    (pool_yz): SparseMaxPool3d(kernel_size=[30, 1, 1], stride=[30, 1, 1], padding=[0, 0, 0], dilation=[1, 1, 1], algo=ConvAlgo.MaskImplicitGemm)
    (pool_zx): SparseMaxPool3d(kernel_size=[1, 22, 1], stride=[1, 22, 1], padding=[0, 0, 0], dilation=[1, 1, 1], algo=ConvAlgo.MaskImplicitGemm)
    (mlp_xy): Sequential(
      (0): Linear(in_features=512, out_features=32, bias=True)
      (1): ReLU()
      (2): Linear(in_features=32, out_features=32, bias=True)
    )
    (mlp_yz): Sequential(
      (0): Linear(in_features=512, out_features=32, bias=True)
      (1): ReLU()
      (2): Linear(in_features=32, out_features=32, bias=True)
    )
    (mlp_zx): Sequential(
      (0): Linear(in_features=512, out_features=32, bias=True)
      (1): ReLU()
      (2): Linear(in_features=32, out_features=32, bias=True)
    )
  )
  (tpv_encoder_decoder): UNet_Stage1(
    (Encoder): ModuleList(
      (0): EBlock(
        (layer1): RDBlock(
          (conv0): RDB_Conv(
            (conv): BasicConv(
              (layer): Conv2d(32, 32, kernel_size=(3, 3), stride=(1, 1), padding=(1, 1))
              (act): GELU()
            )
          )
          (conv1): RDB_Conv(
            (conv): BasicConv(
              (layer): Conv2d(64, 32, kernel_size=(3, 3), stride=(1, 1), padding=(1, 1))
              (act): GELU()
            )
          )
          (conv2): RDB_Conv(
            (conv): BasicConv(
              (layer): Conv2d(96, 32, kernel_size=(3, 3), stride=(1, 1), padding=(1, 1))
              (act): GELU()
            )
          )
          (LFF): BasicConv(
            (layer): Conv2d(128, 32, kernel_size=(1, 1), stride=(1, 1))
          )
        )
        (layer2): RDBlock(
          (conv0): RDB_Conv(
            (conv): BasicConv(
              (layer): Conv2d(32, 32, kernel_size=(3, 3), stride=(1, 1), padding=(1, 1))
              (act): GELU()
            )
          )
          (conv1): RDB_Conv(
            (conv): BasicConv(
              (layer): Conv2d(64, 32, kernel_size=(3, 3), stride=(1, 1), padding=(1, 1))
              (act): GELU()
            )
          )
          (conv2): RDB_Conv(
            (conv): BasicConv(
              (layer): Conv2d(96, 32, kernel_size=(3, 3), stride=(1, 1), padding=(1, 1))
              (act): GELU()
            )
          )
          (LFF): BasicConv(
            (layer): Conv2d(128, 32, kernel_size=(1, 1), stride=(1, 1))
          )
        )
        (layer3): RDBlock(
          (conv0): RDB_Conv(
            (conv): BasicConv(
              (layer): Conv2d(32, 32, kernel_size=(3, 3), stride=(1, 1), padding=(1, 1))
              (act): GELU()
            )
          )
          (conv1): RDB_Conv(
            (conv): BasicConv(
              (layer): Conv2d(64, 32, kernel_size=(3, 3), stride=(1, 1), padding=(1, 1))
              (act): GELU()
            )
          )
          (conv2): RDB_Conv(
            (conv): BasicConv(
              (layer): Conv2d(96, 32, kernel_size=(3, 3), stride=(1, 1), padding=(1, 1))
              (act): GELU()
            )
          )
          (LFF): BasicConv(
            (layer): Conv2d(128, 32, kernel_size=(1, 1), stride=(1, 1))
          )
        )
      )
      (1): EBlock(
        (layer1): RDBlock(
          (conv0): RDB_Conv(
            (conv): BasicConv(
              (layer): Conv2d(64, 64, kernel_size=(3, 3), stride=(1, 1), padding=(1, 1))
              (act): GELU()
            )
          )
          (conv1): RDB_Conv(
            (conv): BasicConv(
              (layer): Conv2d(128, 64, kernel_size=(3, 3), stride=(1, 1), padding=(1, 1))
              (act): GELU()
            )
          )
          (conv2): RDB_Conv(
            (conv): BasicConv(
              (layer): Conv2d(192, 64, kernel_size=(3, 3), stride=(1, 1), padding=(1, 1))
              (act): GELU()
            )
          )
          (LFF): BasicConv(
            (layer): Conv2d(256, 64, kernel_size=(1, 1), stride=(1, 1))
          )
        )
        (layer2): RDBlock(
          (conv0): RDB_Conv(
            (conv): BasicConv(
              (layer): Conv2d(64, 64, kernel_size=(3, 3), stride=(1, 1), padding=(1, 1))
              (act): GELU()
            )
          )
          (conv1): RDB_Conv(
            (conv): BasicConv(
              (layer): Conv2d(128, 64, kernel_size=(3, 3), stride=(1, 1), padding=(1, 1))
              (act): GELU()
            )
          )
          (conv2): RDB_Conv(
            (conv): BasicConv(
              (layer): Conv2d(192, 64, kernel_size=(3, 3), stride=(1, 1), padding=(1, 1))
              (act): GELU()
            )
          )
          (LFF): BasicConv(
            (layer): Conv2d(256, 64, kernel_size=(1, 1), stride=(1, 1))
          )
        )
        (layer3): RDBlock(
          (conv0): RDB_Conv(
            (conv): BasicConv(
              (layer): Conv2d(64, 64, kernel_size=(3, 3), stride=(1, 1), padding=(1, 1))
              (act): GELU()
            )
          )
          (conv1): RDB_Conv(
            (conv): BasicConv(
              (layer): Conv2d(128, 64, kernel_size=(3, 3), stride=(1, 1), padding=(1, 1))
              (act): GELU()
            )
          )
          (conv2): RDB_Conv(
            (conv): BasicConv(
              (layer): Conv2d(192, 64, kernel_size=(3, 3), stride=(1, 1), padding=(1, 1))
              (act): GELU()
            )
          )
          (LFF): BasicConv(
            (layer): Conv2d(256, 64, kernel_size=(1, 1), stride=(1, 1))
          )
        )
      )
      (2): EBlock(
        (layer1): RDBlock(
          (conv0): RDB_Conv(
            (conv): BasicConv(
              (layer): Conv2d(128, 128, kernel_size=(3, 3), stride=(1, 1), padding=(1, 1))
              (act): GELU()
            )
          )
          (conv1): RDB_Conv(
            (conv): BasicConv(
              (layer): Conv2d(256, 128, kernel_size=(3, 3), stride=(1, 1), padding=(1, 1))
              (act): GELU()
            )
          )
          (conv2): RDB_Conv(
            (conv): BasicConv(
              (layer): Conv2d(384, 128, kernel_size=(3, 3), stride=(1, 1), padding=(1, 1))
              (act): GELU()
            )
          )
          (LFF): BasicConv(
            (layer): Conv2d(512, 128, kernel_size=(1, 1), stride=(1, 1))
          )
        )
        (layer2): RDBlock(
          (conv0): RDB_Conv(
            (conv): BasicConv(
              (layer): Conv2d(128, 128, kernel_size=(3, 3), stride=(1, 1), padding=(1, 1))
              (act): GELU()
            )
          )
          (conv1): RDB_Conv(
            (conv): BasicConv(
              (layer): Conv2d(256, 128, kernel_size=(3, 3), stride=(1, 1), padding=(1, 1))
              (act): GELU()
            )
          )
          (conv2): RDB_Conv(
            (conv): BasicConv(
              (layer): Conv2d(384, 128, kernel_size=(3, 3), stride=(1, 1), padding=(1, 1))
              (act): GELU()
            )
          )
          (LFF): BasicConv(
            (layer): Conv2d(512, 128, kernel_size=(1, 1), stride=(1, 1))
          )
        )
        (layer3): RDBlock(
          (conv0): RDB_Conv(
            (conv): BasicConv(
              (layer): Conv2d(128, 128, kernel_size=(3, 3), stride=(1, 1), padding=(1, 1))
              (act): GELU()
            )
          )
          (conv1): RDB_Conv(
            (conv): BasicConv(
              (layer): Conv2d(256, 128, kernel_size=(3, 3), stride=(1, 1), padding=(1, 1))
              (act): GELU()
            )
          )
          (conv2): RDB_Conv(
            (conv): BasicConv(
              (layer): Conv2d(384, 128, kernel_size=(3, 3), stride=(1, 1), padding=(1, 1))
              (act): GELU()
            )
          )
          (LFF): BasicConv(
            (layer): Conv2d(512, 128, kernel_size=(1, 1), stride=(1, 1))
          )
        )
      )
    )
    (feat_extract): ModuleList(
      (0): BasicConv(
        (layer): Conv2d(32, 64, kernel_size=(3, 3), stride=(2, 2), padding=(1, 1))
        (act): GELU()
      )
      (1): BasicConv(
        (layer): Conv2d(64, 128, kernel_size=(3, 3), stride=(2, 2), padding=(1, 1))
        (act): GELU()
      )
      (2): BasicConv(
        (layer): ConvTranspose2d(128, 64, kernel_size=(4, 4), stride=(2, 2), padding=(1, 1))
        (act): GELU()
      )
      (3): BasicConv(
        (layer): ConvTranspose2d(64, 32, kernel_size=(4, 4), stride=(2, 2), padding=(1, 1))
        (act): GELU()
      )
      (4): BasicConv(
        (layer): Conv2d(32, 24, kernel_size=(3, 3), stride=(1, 1), padding=(1, 1))
      )
    )
    (Decoder): ModuleList(
      (0): DBlock(
        (layer1): RDBlock(
          (conv0): RDB_Conv(
            (conv): BasicConv(
              (layer): Conv2d(128, 128, kernel_size=(3, 3), stride=(1, 1), padding=(1, 1))
              (act): GELU()
            )
          )
          (conv1): RDB_Conv(
            (conv): BasicConv(
              (layer): Conv2d(256, 128, kernel_size=(3, 3), stride=(1, 1), padding=(1, 1))
              (act): GELU()
            )
          )
          (conv2): RDB_Conv(
            (conv): BasicConv(
              (layer): Conv2d(384, 128, kernel_size=(3, 3), stride=(1, 1), padding=(1, 1))
              (act): GELU()
            )
          )
          (LFF): BasicConv(
            (layer): Conv2d(512, 128, kernel_size=(1, 1), stride=(1, 1))
          )
        )
        (layer2): RDBlock(
          (conv0): RDB_Conv(
            (conv): BasicConv(
              (layer): Conv2d(128, 128, kernel_size=(3, 3), stride=(1, 1), padding=(1, 1))
              (act): GELU()
            )
          )
          (conv1): RDB_Conv(
            (conv): BasicConv(
              (layer): Conv2d(256, 128, kernel_size=(3, 3), stride=(1, 1), padding=(1, 1))
              (act): GELU()
            )
          )
          (conv2): RDB_Conv(
            (conv): BasicConv(
              (layer): Conv2d(384, 128, kernel_size=(3, 3), stride=(1, 1), padding=(1, 1))
              (act): GELU()
            )
          )
          (LFF): BasicConv(
            (layer): Conv2d(512, 128, kernel_size=(1, 1), stride=(1, 1))
          )
        )
        (layer3): RDBlock(
          (conv0): RDB_Conv(
            (conv): BasicConv(
              (layer): Conv2d(128, 128, kernel_size=(3, 3), stride=(1, 1), padding=(1, 1))
              (act): GELU()
            )
          )
          (conv1): RDB_Conv(
            (conv): BasicConv(
              (layer): Conv2d(256, 128, kernel_size=(3, 3), stride=(1, 1), padding=(1, 1))
              (act): GELU()
            )
          )
          (conv2): RDB_Conv(
            (conv): BasicConv(
              (layer): Conv2d(384, 128, kernel_size=(3, 3), stride=(1, 1), padding=(1, 1))
              (act): GELU()
            )
          )
          (LFF): BasicConv(
            (layer): Conv2d(512, 128, kernel_size=(1, 1), stride=(1, 1))
          )
        )
      )
      (1): DBlock(
        (layer1): RDBlock(
          (conv0): RDB_Conv(
            (conv): BasicConv(
              (layer): Conv2d(64, 64, kernel_size=(3, 3), stride=(1, 1), padding=(1, 1))
              (act): GELU()
            )
          )
          (conv1): RDB_Conv(
            (conv): BasicConv(
              (layer): Conv2d(128, 64, kernel_size=(3, 3), stride=(1, 1), padding=(1, 1))
              (act): GELU()
            )
          )
          (conv2): RDB_Conv(
            (conv): BasicConv(
              (layer): Conv2d(192, 64, kernel_size=(3, 3), stride=(1, 1), padding=(1, 1))
              (act): GELU()
            )
          )
          (LFF): BasicConv(
            (layer): Conv2d(256, 64, kernel_size=(1, 1), stride=(1, 1))
          )
        )
        (layer2): RDBlock(
          (conv0): RDB_Conv(
            (conv): BasicConv(
              (layer): Conv2d(64, 64, kernel_size=(3, 3), stride=(1, 1), padding=(1, 1))
              (act): GELU()
            )
          )
          (conv1): RDB_Conv(
            (conv): BasicConv(
              (layer): Conv2d(128, 64, kernel_size=(3, 3), stride=(1, 1), padding=(1, 1))
              (act): GELU()
            )
          )
          (conv2): RDB_Conv(
            (conv): BasicConv(
              (layer): Conv2d(192, 64, kernel_size=(3, 3), stride=(1, 1), padding=(1, 1))
              (act): GELU()
            )
          )
          (LFF): BasicConv(
            (layer): Conv2d(256, 64, kernel_size=(1, 1), stride=(1, 1))
          )
        )
        (layer3): RDBlock(
          (conv0): RDB_Conv(
            (conv): BasicConv(
              (layer): Conv2d(64, 64, kernel_size=(3, 3), stride=(1, 1), padding=(1, 1))
              (act): GELU()
            )
          )
          (conv1): RDB_Conv(
            (conv): BasicConv(
              (layer): Conv2d(128, 64, kernel_size=(3, 3), stride=(1, 1), padding=(1, 1))
              (act): GELU()
            )
          )
          (conv2): RDB_Conv(
            (conv): BasicConv(
              (layer): Conv2d(192, 64, kernel_size=(3, 3), stride=(1, 1), padding=(1, 1))
              (act): GELU()
            )
          )
          (LFF): BasicConv(
            (layer): Conv2d(256, 64, kernel_size=(1, 1), stride=(1, 1))
          )
        )
      )
      (2): DBlock(
        (layer1): RDBlock(
          (conv0): RDB_Conv(
            (conv): BasicConv(
              (layer): Conv2d(32, 32, kernel_size=(3, 3), stride=(1, 1), padding=(1, 1))
              (act): GELU()
            )
          )
          (conv1): RDB_Conv(
            (conv): BasicConv(
              (layer): Conv2d(64, 32, kernel_size=(3, 3), stride=(1, 1), padding=(1, 1))
              (act): GELU()
            )
          )
          (conv2): RDB_Conv(
            (conv): BasicConv(
              (layer): Conv2d(96, 32, kernel_size=(3, 3), stride=(1, 1), padding=(1, 1))
              (act): GELU()
            )
          )
          (LFF): BasicConv(
            (layer): Conv2d(128, 32, kernel_size=(1, 1), stride=(1, 1))
          )
        )
        (layer2): RDBlock(
          (conv0): RDB_Conv(
            (conv): BasicConv(
              (layer): Conv2d(32, 32, kernel_size=(3, 3), stride=(1, 1), padding=(1, 1))
              (act): GELU()
            )
          )
          (conv1): RDB_Conv(
            (conv): BasicConv(
              (layer): Conv2d(64, 32, kernel_size=(3, 3), stride=(1, 1), padding=(1, 1))
              (act): GELU()
            )
          )
          (conv2): RDB_Conv(
            (conv): BasicConv(
              (layer): Conv2d(96, 32, kernel_size=(3, 3), stride=(1, 1), padding=(1, 1))
              (act): GELU()
            )
          )
          (LFF): BasicConv(
            (layer): Conv2d(128, 32, kernel_size=(1, 1), stride=(1, 1))
          )
        )
        (layer3): RDBlock(
          (conv0): RDB_Conv(
            (conv): BasicConv(
              (layer): Conv2d(32, 32, kernel_size=(3, 3), stride=(1, 1), padding=(1, 1))
              (act): GELU()
            )
          )
          (conv1): RDB_Conv(
            (conv): BasicConv(
              (layer): Conv2d(64, 32, kernel_size=(3, 3), stride=(1, 1), padding=(1, 1))
              (act): GELU()
            )
          )
          (conv2): RDB_Conv(
            (conv): BasicConv(
              (layer): Conv2d(96, 32, kernel_size=(3, 3), stride=(1, 1), padding=(1, 1))
              (act): GELU()
            )
          )
          (LFF): BasicConv(
            (layer): Conv2d(128, 32, kernel_size=(1, 1), stride=(1, 1))
          )
        )
      )
    )
    (Convs): ModuleList(
      (0): BasicConv(
        (layer): Conv2d(128, 64, kernel_size=(1, 1), stride=(1, 1))
        (act): GELU()
      )
      (1): BasicConv(
        (layer): Conv2d(64, 32, kernel_size=(1, 1), stride=(1, 1))
        (act): GELU()
      )
    )
    (AFFs): ModuleList(
      (0): AFF(
        (conv1): BasicConv(
          (layer): Conv2d(224, 32, kernel_size=(1, 1), stride=(1, 1))
          (act): GELU()
        )
        (conv2): BasicConv(
          (layer): Conv2d(32, 32, kernel_size=(3, 3), stride=(1, 1), padding=(1, 1))
        )
      )
      (1): AFF(
        (conv1): BasicConv(
          (layer): Conv2d(224, 64, kernel_size=(1, 1), stride=(1, 1))
          (act): GELU()
        )
        (conv2): BasicConv(
          (layer): Conv2d(64, 64, kernel_size=(3, 3), stride=(1, 1), padding=(1, 1))
        )
      )
      (2): AFF(
        (conv1): BasicConv(
          (layer): Conv2d(224, 128, kernel_size=(1, 1), stride=(1, 1))
          (act): GELU()
        )
        (conv2): BasicConv(
          (layer): Conv2d(128, 128, kernel_size=(3, 3), stride=(1, 1), padding=(1, 1))
        )
      )
    )
    (FAM1): FAM(
      (merge): BasicConv(
        (layer): Conv2d(128, 128, kernel_size=(3, 3), stride=(1, 1), padding=(1, 1))
      )
    )
    (SCM1): SCM(
      (layer1): BasicConv(
        (layer): Conv2d(32, 64, kernel_size=(3, 3), stride=(1, 1), padding=(1, 1))
        (act): GELU()
      )
      (layer2): BasicConv(
        (layer): Conv2d(64, 96, kernel_size=(1, 1), stride=(1, 1))
        (act): GELU()
      )
      (conv): BasicConv(
        (layer): Conv2d(128, 128, kernel_size=(1, 1), stride=(1, 1))
      )
    )
    (FAM2): FAM(
      (merge): BasicConv(
        (layer): Conv2d(64, 64, kernel_size=(3, 3), stride=(1, 1), padding=(1, 1))
      )
    )
    (SCM2): SCM(
      (layer1): BasicConv(
        (layer): Conv2d(32, 32, kernel_size=(3, 3), stride=(1, 1), padding=(1, 1))
        (act): GELU()
      )
      (layer2): BasicConv(
        (layer): Conv2d(32, 32, kernel_size=(1, 1), stride=(1, 1))
        (act): GELU()
      )
      (conv): BasicConv(
        (layer): Conv2d(64, 64, kernel_size=(1, 1), stride=(1, 1))
      )
    )
  )
  (tpv_aggregator): TPVAggregator_Seg(
    (decoder): Sequential(
      (0): Linear(in_features=24, out_features=48, bias=True)
      (1): Softplus(beta=1, threshold=20)
      (2): Linear(in_features=48, out_features=24, bias=True)
    )
    (classifier): Linear(in_features=24, out_features=5, bias=True)
  )
)
2024/04/10 20:42:49 - mmengine - INFO - [TRAIN] Epoch 1 Iter     0/9000: Loss: 6.078 (6.078), lr: 0.0000100, time: 5.893 (2.717)
2024/04/10 20:43:01 - mmengine - INFO - [TRAIN] Epoch 1 Iter    50/9000: Loss: 6.267 (5.692), lr: 0.0000290, time: 0.227 (0.012)
2024/04/10 20:43:12 - mmengine - INFO - [TRAIN] Epoch 1 Iter   100/9000: Loss: 2.541 (3.854), lr: 0.0000480, time: 0.230 (0.012)
…
